Model: "sequential_2"
________________________________________________________________________________
Layer (type)                        Output Shape                    Param #     
================================================================================
conv2d_4 (Conv2D)                   (None, 26, 26, 4)               40          
________________________________________________________________________________
max_pooling2d_4 (MaxPooling2D)      (None, 13, 13, 4)               0           
________________________________________________________________________________
conv2d_5 (Conv2D)                   (None, 11, 11, 2)               74          
________________________________________________________________________________
max_pooling2d_5 (MaxPooling2D)      (None, 5, 5, 2)                 0           
________________________________________________________________________________
flatten_2 (Flatten)                 (None, 50)                      0           
________________________________________________________________________________
dense_2 (Dense)                     (None, 10)                      510         
________________________________________________________________________________
softmax_2 (Softmax)                 (None, 10)                      0           
================================================================================
Total params: 624
Trainable params: 624
Non-trainable params: 0
________________________________________________________________________________


layer name          : FLOPs
--------------------------------------------------------------------------------
conv2d_4/Conv2D     : 48672
conv2d_5/Conv2D     : 17424
…
